models/onnx/model.onnx (onnx, 407668 bytes, 8 tensors)

encoder.l1.0.weight f4 [64, 784]
00000000: a2ae df3c 2ed6 f23c 3815 09bc 3561 063d
00000010: f834 00bc 2027 ec3b 9c70 8ebc 78d2 ab3c
00000020: 07f5 003d 7ea3 d6bc 4e4d fe3c a807 db3b
00000030: 8627 d83c 107e 9e3b 1013 8d3c dc3b a5bb
00000040: 068a e13c 88fa ac3b 8395 88bc e426 153c
00000050: 63cc 86bc 283e 89bb 20a9 6dbc 5a15 c23c
00000060: 7af2 e6bc e3e0 86bc c63a 25bc 48ea afbc
00000070: 10e9 5c3b bd7b 10bd a91c 043d b887 f8bc
00000080: 86df e13c 08c2 c23b a0ff 3dbc 66cb b43c
00000090: d063 b63b 1263 ec3c e0de 7f3b d289 38bc
000000a0: e437 1d3c c0ad 1ebc 0443 763c 6d9b 023d
000000b0: ac1f a93c f4ce 7fbc 22e4 a83c 1065 d13b
000000c0: fa93 943c e352 b2bc 3acf 10bd 7c13 62bc
000000d0: b368 e0bc f610 f03c 1c8a 283c c45f 723c
000000e0: d80e 393c c0dd 22ba 06f8 e43c 40e0 cfbc
000000f0: 005f 133b 18b1 c7bc 146e 343c 4a83 49bc
00000100: 26a2 3cbc b080 fbbc da04 d13b 5c68 adbc
00000110: 307d aebc e37f aebc 5d93 033d e0ff 423c
00000120: 77c3 0c3d c873 f1bc ea18 11bd b5e5 e4bc
00000130: 43cf c4bc a001 6d3c 8886 513c d21a f33c
00000140: 6017 97bc 0c73 c7bc 663b 9b3c 7284 6cbc
00000150: 8e91 b13c d2da 0abc 425d a73c 9351 e3bc
00000160: 67a5 93bc 7465 323c 4068 f73b f22f 15bc
00000170: 9664 ae3c 4211 873a 7a0f 49bd d031 9cbc
00000180: c1f2 053d 3c72 45bc 5871 4fbc 978b 0dbd
00000190: 058c a7bc bc2b 123c 4078 9abb 9e5f d4bc
000001a0: c09b 5b3a a3d9 c7bc 7537 f8bc b01b a1bc
000001b0: f207 00bd 984a babc 7f3a 123d a809 dd3b
000001c0: 4451 343c 3b70 08bd 3c27 c0bc aac4 42bc
000001d0: b8ff b63b 4db8 00bd 4e1f 7cbc 4027 afbc
000001e0: 0090 cf38 a7a8 15bd 91b5 d2bc 4e41 c6bc
000001f0: d3d1 c8bc ccaf aabc fc4a 48bc caeb e6bc
00000200: f64f f53c 7842 e8bb 3eba fb3c f051 363c
00000210: a5bf f7bc 4078 ca3c c0ff 20bc ee4c 60bc
00000220: dcda f2bc 776e 11bd 646a 273c 48a4 ffbb
00000230: 44cf 633c 4a1a f0bc ac36 d93c 5ec3 d6bc
00000240: c013 cabb f06f f43b 600a 973c 2a32 ec3c
00000250: 7df1 493c fb3a 53bd 22ab 9ebc 4d17 a8bc
00000260: 68a9 14bc 60a0 02bd 77e5 e03c a3bb d6bc
00000270: 7c5d 9c3c 74a4 4d3c 4825 3e3c 7a2d 9ebc
00000280: 75f7 043d dc95 003c b08b 963b 3dea 00bd
00000290: e0a2 753c 2491 afbb ba08 86bc a24d fb3c
000002a0: f874 023c 75df a1bc f014 94bc 208d dfba
000002b0: 4e5c a33c 1886 15bc 15ef a6bc c660 48bc
000002c0: ea3c 10bd 802f 1ebc ea97 053c 95db 1ebd
000002d0: ec61 4d3b d3b9 593c 246b ac3a 5977 92bc
000002e0: b3e0 5c3c 7911 5f3c 04cd 5a3c f0a4 cdbb
000002f0: 52f2 1abc 8065 7a3b 5cbc cebb 8a5f 2ebc
00000300: 8003 bb3c 8e6f fb3c e0b5 67bb fc02 03bc
00000310: 009e 083a 60c0 0bbb c8ac 0c3c 08fa 233c
00000320: 70dd 04bd 98f0 57bc 0e62 f63c 4ea2 0f3c
00000330: 7778 06bc 7132 18bd 01dc 14bd 67b1 19bd
00000340: f0a4 89bc 701a e23b dc45 903c d39a 393c
00000350: 6572 16bd be37 dabc 3ecb 30bc 6982 0d3d
00000360: 684a a93b ee88 17bc 2015 723c c0de 5ebc
00000370: 585e bdbc 4e8b d53c 6308 85bc 789a eabb
00000380: 9286 11bd 3acf c33c 8aa9 dd3c 1841 553c
00000390: a500 ccbc 0e60 10bd d19e edbc ac2b da3c
000003a0: 7367 1e3c 934b 663c 0165 c738 3a43 35bb
000003b0: 4974 b4bb 115e 04bd 2875 12bd adf6 1dbd
000003c0: eafd 1a3c 94eb b9bc 5350 4abc 5c60 a8bc
000003d0: f040 d5bb 08ec cdbc b82b bfbc 2419 423c
000003e0: 00e7 2dbc f29d b43c 0eb8 3bbc ee9e d6bc
000003f0: e47b cebb c0d2 8dbc 0005 33bc 6c43 0bbd
0.027304951 0.029643144 -0.008366875 0.032807548 -0.007825129 0.0072068125 -0.01738768 0.020974383
0.031483676 -0.026201006 0.031042721 0.0066842623 0.026386034 0.004836805 0.017221004 -0.005042536
0.027531635 0.005278889 -0.016672855 0.0091035105 -0.016454881 -0.004188318 -0.014505655 0.023691822
-0.028191794 -0.016464656 -0.010084813 -0.021474019 0.0033708252 -0.035274256 0.032253895 -0.030338153
0.027572405 0.0059435405 -0.01159659 0.022069644 0.005566098 0.028855834 0.0039042756 -0.011263328
0.009595845 -0.00968498 0.015030626 0.031886507 0.020644985 -0.015613306 0.020616595 0.0063902214
0.018136967 -0.02176804 -0.035353877 -0.013798591 -0.027393674 0.029304963 0.010286834 0.01479334
0.011295043 -0.0006212853 0.027950298 -0.025375485 0.0022487044 -0.024376437 0.011012573 -0.012299368
-0.011513269 -0.030701011 0.006378752 -0.021167926 -0.021299928 -0.021301216 0.03212296 0.011901826
0.034366097 -0.029474154 -0.03542415 -0.027941564 -0.024024611 0.014465719 0.012788422 0.029675875
-0.018443763 -0.02434685 0.018949222 -0.014435874 0.021675851 -0.008475022 0.020430211 -0.027748859
-0.018023206 0.010888446 0.0075502694 -0.009105669 0.021288197 0.0010304826 -0.049087025 -0.019066721
0.03270221 -0.012051161 -0.012661301 -0.03455695 -0.020452509 0.00892156 -0.004714042 -0.0259245
0.00083773956 -0.02439577 -0.030299881 -0.019666523 -0.031257577 -0.022740647 0.035700317 0.006745536
0.011005703 -0.033310156 -0.023456208 -0.011887709 0.0055846833 -0.031425763 -0.015388323 -0.02138102
9.897351e-05 -0.036537793 -0.025721343 -0.024201062 -0.024514114 -0.02083578 -0.012224909 -0.028188605
0.029945355 -0.007088002 0.030728456 0.011127934 -0.03024275 0.024715543 -0.009826601 -0.0136902165
-0.029645376 -0.035505738 0.010218237 -0.0078015663 0.013904396 -0.02930941 0.026515327 -0.026216205
-0.006166905 0.007459633 0.018437564 0.028832514 0.012325642 -0.05156992 -0.019368712 -0.020518923
-0.009073593 -0.031891227 0.027453167 -0.026212519 0.019087546 0.012551416 0.011605568 -0.019308794
0.032462556 0.007848229 0.0045942888 -0.031473387 0.014992446 -0.0053578783 -0.016361583 0.030676667
0.007962458 -0.019759873 -0.01807639 -0.0017055608 0.019941475 -0.009126209 -0.020377675 -0.012230104
-0.035214342 -0.00965488 0.008153895 -0.03878363 0.0031338884 0.013288933 0.0013154489 -0.017879175
0.013481307 0.013615006 0.013354544 -0.0062757656 -0.009457188 0.0038207471 -0.0063090753 -0.0106428955
0.022828817 0.030692842 -0.0035356209 -0.007996317 0.0005211532 -0.0021324381 0.008586116 0.010008343
-0.03243774 -0.013179921 0.030076053 0.008766724 -0.008207432 -0.03715748 -0.036342625 -0.0375227
-0.016802281 0.0069001243 0.017611437 0.011328417 -0.03673019 -0.026637908 -0.010790644 0.034548197
0.0051663406 -0.009248955 0.014775544 -0.013602912 -0.023116276 0.026067402 -0.01623935 -0.0071595274
-0.035528727 0.023902524 0.027058382 0.013016008 -0.024902651 -0.035247855 -0.029006394 0.026632152
0.009668219 0.014056104 9.507873e-05 -0.0027658478 -0.0055070263 -0.03231627 -0.03575626 -0.038565326
0.009459952 -0.02269534 -0.012348252 -0.02055376 -0.0065079853 -0.025136963 -0.023336276 0.011846814
-0.010614157 0.02204797 -0.011457456 -0.02619883 -0.00630139 -0.017312407 -0.010926485 -0.033999845

encoder.l1.0.bias f4 [64]
00000000: e461 21bb c3f7 9cbd 891d 6abd 2d58 8c3f
00000010: 1246 753e d191 efbb ee77 153f bf8e 60bd
00000020: b14f 1ebd f1ec b1bd c21c 26bd 64d5 8a3f
00000030: 944f 9ebe 0143 9dbc b8cd 2bbd 5830 1dbd
00000040: c409 82bd 0180 bebe e376 16bd cc92 cd3e
00000050: 1505 7bbd ae99 31bd fbfa 8dbc ff7e a1bb
00000060: abe1 fabc 9875 22bd 4e62 8abc 93a8 803d
00000070: e48e 36bd c475 29be 412e 58bd 7068 0a3b
00000080: a8e6 73bd 5350 84bd 2eaa 5fbd e329 37bd
00000090: cc64 febc f406 07bc 3145 963f c459 07bc
000000a0: 5479 a1bd 35bd babd 7296 2cbd 7bcc dfbc
000000b0: 5ed0 133f af9e 473e cd84 78c0 cdc0 06bd
000000c0: cc77 72be 8576 c4bc 67c3 ed3f f7de 10bd
000000d0: ed9c 76bc 2b75 9cbe a09f 0dbf 54c5 94bd
000000e0: c7e1 4dbd c8ff 2fc0 c03a abbb 7bdb eabc
000000f0: 2469 2c3f b6ea e4bd c72a 02bd 61a4 1940
-0.0024624998 -0.07664444 -0.057157073 1.0964409 0.23952511 -0.007311084 0.58386123 -0.054823633
-0.03865022 -0.08687771 -0.04055477 1.0846372 -0.30920088 -0.019196989 -0.041944236 -0.038376182
-0.06349519 -0.37207034 -0.036734473 0.4015106 -0.061284143 -0.04335945 -0.01733159 -0.004928469
-0.030625185 -0.039662927 -0.016892578 0.06282153 -0.044569865 -0.1654883 -0.052778486 0.0021119379
-0.059546143 -0.06460633 -0.054605655 -0.04471768 -0.031053923 -0.008241404 1.1739866 -0.008261148
-0.0788447 -0.091181196 -0.042135663 -0.027319184 0.5773982 0.19494127 -3.8831055 -0.032898713
-0.23678511 -0.023982296 1.8575257 -0.035368886 -0.015052062 -0.30558142 -0.55321693 -0.072642
-0.050264146 -2.7499866 -0.0052255094 -0.02866911 0.6734793 -0.1117758 -0.031779077 2.400658

encoder.l1.2.weight f4 [3, 64]
00000000: 443d d63c e5ae 82bd 55a4 7b3b 0b06 e3bc
00000010: 0e1d 9c3b 5615 233e 2080 623d 1382 80bd
00000020: b394 203d 67a6 d13c 1791 eb3c 4757 50bd
00000030: a708 703d dae7 483d 9876 ec3a 22f5 6b3d
00000040: 02fe dabc d704 05be c50d b0bd ea3c 7cbd
00000050: 002a f53c d1b3 99bb 6767 98bd c986 0fbc
00000060: bd64 883c 7afa b6bd 0a9d 973d 08d0 7a3d
00000070: 9ee7 a43d c581 16bc 066e 553d 10ea 663c
00000080: 1fd4 063c 33d4 a83c 0f83 cd3a a945 603d
00000090: 9031 2bbd a4e5 3dbd 284d bf3d e082 613d
000000a0: 40ca b33d 3b38 313d 6656 943d f2f2 7e3d
000000b0: 15b8 dfbc 4495 65bd b673 ebbd bb45 6d3c
000000c0: 1a4b bd3c e035 b33c 551a 813d 13dd efbb
000000d0: 2f93 c4bc a85d 21bd 58c0 debd a890 c6bd
000000e0: 2c24 48bd 81c6 d1bd 0b75 0abd 835b d9bd
000000f0: 45c9 203d 6067 02be b4cd 8ebc 5ef3 023c
00000100: 59d9 9ebd 0882 393c 420a eb3d 8dff 89bd
00000110: a62a a53d 3a14 053d 972e 5ebc 06d3 5a3d
00000120: be13 313d 6c1b aa3d 8327 603d 682a 2cb9
00000130: ddf3 8e3e 2bc9 3d3c b31d 153c e1dc dcbd
00000140: 9556 81bd 6632 67bb ae11 9abd 1edf ba3e
00000150: 3825 843d 8c36 ef3d 46a3 58bd 56ba ab3d
00000160: b177 cdbd 6e69 9bbd 8ce9 c73d c12d 043e
00000170: 8b80 503c 3613 ca3a 21e5 b53c 3a47 80bc
00000180: 164e 333d 56e9 833d 8fed ffbb 6e8f f0bc
00000190: d371 96bd 2703 213d 4e89 903b 2235 a8bd
000001a0: 8c07 cabc b4dc 17bd cbeb dc3d a47a 12bd
000001b0: b38b 26bc 7b6e 2dbd 3b52 4e3d 4cea 6bbc
000001c0: a0b4 98bd c4cb ae3d 5a62 f73d 465b ea3c
000001d0: 9f1b a63d 93d3 b03c 9b8a 88bc 5403 ad3d
000001e0: 9ff5 a93d 73a2 e53d 89f3 94bd 5705 223d
000001f0: a5cd 973e e4e2 6fbd c152 d93c 99d1 563d
00000200: 0efb 033e 4960 4b3d 9768 d13c 67bb 93bd
00000210: 4508 8dbd b3e4 9dbd 0c75 5ebd 34d2 a0bc
00000220: 9128 09bc a37b 9f38 c3df 933d ff43 fe3d
00000230: e394 143e 3f14 edbd a301 b43c b2fd b0bd
00000240: a24a 1cbd 56ff b0ba 02a8 b2bc c341 96bd
00000250: ae62 86bd fee4 ca3d 7fa7 dbbc eb03 0ebd
00000260: 5688 81bd fda1 7e3d feb6 543d 0a9b a2bd
00000270: 5408 593c ad3b 803a 48ce 9bbd dda2 213c
00000280: 23de 403d 8cda 723c a8fe 193d af94 63bd
00000290: d1ed 3bbd 7bb2 85bc 7615 523d 0e85 6b3d
000002a0: 576e b53c fcab 83bc 1b46 b33c bdc1 6fbb
000002b0: b4af e73d 0058 6d3d a743 32bd 84fe f03c
000002c0: f936 313d c8bc 07bd 1924 d5bc da79 623c
000002d0: a94a d1bb 7f3e 23bd 28cd b13d ee64 d13c
000002e0: 03dc 0e3d e47d 3f3d d5fe 87bd 4c0a 73bc
000002f0: 65ef 5a3c 567f 463e f1ee 99bb bd60 de3d
0.02615226 -0.06381015 0.003839751 -0.027712842 0.004764206 0.15926108 0.05529797 -0.0627481
0.03920431 0.025592042 0.028755708 -0.050864484 0.058602 0.049049236 0.0018040715 0.057606824
-0.026732448 -0.12990128 -0.08596376 -0.06158153 0.029927254 -0.0046906252 -0.074415974 -0.008760163
0.016649598 -0.08934493 0.07403 0.06123355 0.0805199 -0.009186213 0.05210688 0.014093891
0.008229285 0.020608997 0.0015679317 0.054753933 -0.041795313 -0.04636158 0.09340888 0.055056453
0.087788105 0.043266516 0.07243042 0.06224341 -0.027309457 -0.056050554 -0.114966795 0.014481957
0.0231071 0.021876276 0.063038506 -0.0073200553 -0.023995964 -0.03939596 -0.108765304 -0.0969556
-0.04886262 -0.1024294 -0.033803027 -0.106131576 0.039254446 -0.12734747 -0.017432071 0.007992594
-0.077562995 0.011322506 0.11476566 -0.067381956 0.08064775 0.032489993 -0.013560913 0.053423904
0.04323172 0.083060116 0.05472518 -0.00016418996 0.27920428 0.011583607 0.009101319 -0.10784317
-0.06315342 -0.0035277843 -0.075229034 0.3649835 0.064524114 0.11680326 -0.052890085 0.0838515
-0.10032595 -0.075884685 0.097613424 0.12908079 0.0127259595 0.0015417102 0.022203984 -0.015658963
0.04377564 0.0644099 -0.0078103016 -0.029365268 -0.07345929 0.039309647 0.0044108992 -0.08213259
-0.024661802 -0.037075713 0.107871614 -0.03576149 -0.010165143 -0.04234169 0.05037139 -0.014399122
-0.074563265 0.08534959 0.12079306 0.028607976 0.08110737 0.021585261 -0.016667655 0.084479004
0.08298802 0.11212625 -0.07273013 0.039555874 0.29649082 -0.05856599 0.026528718 0.05244598
0.12888739 0.04965237 0.025562568 -0.072134785 -0.06886343 -0.077096365 -0.054310843 -0.019631483
-0.008371488 7.60474e-05 0.072204135 0.12415313 0.14509921 -0.11576127 0.021973437 -0.086421385
-0.038157113 -0.001350383 -0.021808628 -0.07336762 -0.065617904 0.09906958 -0.026813267 -0.034671705
-0.06324832 0.062166203 0.051932327 -0.079397276 0.0132466145 0.000978341 -0.076077044 0.00986549
0.047086846 0.014822613 0.037596375 -0.055561718 -0.045881096 -0.016320458 0.051289998 0.057499938
0.02214734 -0.01607322 0.021884015 -0.0036583983 0.113128096 0.05794525 -0.04352155 0.029418238
0.043265317 -0.03313902 -0.02601819 0.013822997 -0.006387074 -0.039854523 0.086817086 0.025560822
0.03487779 0.046750918 -0.06640402 -0.014833998 0.01336274 0.19384512 -0.0046976735 0.10858295

encoder.l1.2.bias f4 [3]
00000000: 67b5 bf3d f9d4 033e 059a b0bd
0.093607716 0.12874211 -0.08623127

decoder.l1.0.weight f4 [64, 3]
00000000: 752e 8e3e c421 13bf ca67 3d3d 4291 053e
00000010: dd42 33be 733b 22bf c49d 49bb a032 77bd
00000020: 770e 0f3e 5c0e a93e 5b75 e23e 8d01 b3bd
00000030: cc05 d43c a776 a3be 4cdf 65bc 1567 173e
00000040: 2fe9 a23c 05db ccbe 7298 50be 094b b3be
00000050: 13eb 9a3e 069c 9e3e eec5 8dbd 1b9d 02bf
00000060: 53db 443e e204 023e f298 973e 59cf b43e
00000070: 7b61 2e3e 3195 b7be 3dc8 073e 9d47 903d
00000080: 6548 d73e 9730 cb3d 1125 933e 4362 c1be
00000090: ffec 37be 183e 463d f48f ec3a fa6b c43e
000000a0: f3cf bdbd b21c 303e 7ec0 e3bc f11c e33d
000000b0: fda1 103c 9305 d93e c824 3f3e 34b9 753e
000000c0: a981 9f3b 31c7 40bc 60fb bd3b 958f 043a
000000d0: d3df 66bb 02be 69bc e108 003f 0d22 4cbe
000000e0: 3634 e0be cd1a 4abe c7ee 7cbe 5199 67bd
000000f0: d2ad cabd 118f 79be 7544 ffbd b5a3 9b3c
00000100: cf5e aabc e50a 1dbc c860 56be 0d37 c7bd
00000110: 33a6 353c 2d8b ad3e 8a27 f9bc 84e6 49be
00000120: 1ef3 283e 051d 7fbe eb99 9ebe 3f20 8d3e
00000130: a6b6 2d3e 7ca7 23bf 51ab f5bc 871d 7bbc
00000140: 235a 86bd e80b f63b 144b adbb 036c daba
00000150: 7cb7 2e3f 5b70 b7be 4b8f 16be 9f26 8d3c
00000160: ee71 85bc 36b8 5bbc dae0 8e3c 8500 833c
00000170: 232b 233d 69e5 353f 71a5 363d 1e26 88be
00000180: ee6a 58bb 833f 17bb e0c9 91bc 48ca 1ebd
00000190: 8a7e 1d3e 44d5 553e 46f1 02be 8dd2 d3bd
000001a0: f685 3f3e 1055 963d 53d5 d2bd f4c9 e93d
000001b0: d279 75bd 717e 09be 26e5 05be 93a5 093f
000001c0: 763b 873e 1802 09bf e833 803d 1546 253d
000001d0: b07d 3bbe 48bb 9ebe 46eb 80be 81f9 57be
000001e0: 0bc1 37be e1d1 003e 489f 82bd 770c 52be
000001f0: ac67 64bd 8f3e 38be e342 c0bd 7ea9 3bbe
00000200: bedd 043e 420f 1a3f 72b9 0bbe ed04 f13d
00000210: 551c de3e 3fc8 9a3d f3ba 473d a671 80bd
00000220: e8e8 9d3d ac8d c9be ca94 d2bd c488 d7be
00000230: 2415 b33e 8c3c 913e ca48 763e bb5c b5bd
00000240: 7364 483b be7a 2b3c 083a 82bb 97bb 183f
00000250: 1484 25be 611e 6ebe bbee 3f3e 7516 52be
00000260: 2054 123e 74b7 283e a0b6 c7be 5a95 443d
00000270: 0c25 133e 2242 ecbe 0888 82be 6fb2 02bd
00000280: 7449 e6be 344f d3bd 1eca 633e 9d72 13be
00000290: 87d9 183e f386 973d 5b95 323e b023 433e
000002a0: 129f 743c e453 0b3b ad3e fdbb e72e 95be
000002b0: 13c8 84be 76f7 513e 36f2 2e3f e3fc ca3d
000002c0: 4f47 68be b1d1 a53d 9928 a9bd ee31 963e
000002d0: df8b c83e 6a7c b3be 8942 8ebd 02db 25be
000002e0: 31f6 593d 4ef0 f1be 33ed 803e 6a4d e73e
000002f0: 68ca 1a3e 0bfa 503d 5fac 923e b0b4 60be
0.2776982 -0.574734 0.04624156 0.13043693 -0.17505975 -0.6337196 -0.0030764202 -0.060351014
0.13970362 0.33018768 0.4423016 -0.0874053 0.02588167 -0.31926462 -0.014030289 0.14785416
0.019886581 -0.4001085 -0.20370653 -0.35018185 0.30257472 0.3097841 -0.06922518 -0.51020974
0.1922429 0.12697175 0.29608876 0.35314444 0.17029373 -0.35856012 0.13259979 0.07044909
0.4204742 0.09921377 0.28739217 -0.3777028 -0.179615 0.04839906 0.0018048272 0.3836363
-0.09268179 0.17198446 -0.027801748 0.110895045 0.0088276835 0.42387065 0.18666375 0.2399643
0.0048677516 -0.011766241 0.0057977885 0.0005056796 -0.0035228624 -0.014266493 0.5001355 -0.19934864
-0.43789834 -0.19736786 -0.24700461 -0.0565427 -0.09896435 -0.24370982 -0.12464229 0.01899896
-0.020797161 -0.009585117 -0.20935357 -0.09727297 0.011086988 0.33895245 -0.030414362 -0.19716841
0.16498992 -0.24913414 -0.30976805 0.27563664 0.16964206 -0.63927436 -0.029988917 -0.015326864
-0.06560161 0.0075087436 -0.005288491 -0.001666427 0.68248725 -0.35827908 -0.147031 0.01723033
-0.016289677 -0.0134106185 0.017441202 0.015991459 0.03983606 0.7105318 0.04459137 -0.2659158
-0.003302272 -0.0023078627 -0.017796457 -0.03876713 0.15380302 0.20882136 -0.12787351 -0.10342894
0.18703446 0.07340443 -0.102945946 0.114154726 -0.05993063 -0.1342714 -0.13075694 0.5376827
0.26412553 -0.5351882 0.062599 0.04035004 -0.18309665 -0.3100226 -0.251795 -0.21091272
-0.17944734 0.12580062 -0.06378037 -0.20512567 -0.05576293 -0.17992614 -0.09387758 -0.18326375
0.12975213 0.6017953 -0.1364496 0.11768518 0.4338099 0.07557725 0.048762273 -0.06271677
0.07710439 -0.393659 -0.102822855 -0.4209653 0.34977067 0.28366506 0.24051204 -0.088555776
0.003057745 0.010466276 -0.003974203 0.5966124 -0.16163665 -0.23253776 0.18743412 -0.20516379
0.14289904 0.16476232 -0.3900652 0.047993995 0.14369601 -0.46144205 -0.2549441 -0.03190845
-0.44977915 -0.10317841 0.2224507 -0.1439919 0.1492673 0.073987864 0.17439787 0.19056582
0.014930503 0.002125972 -0.007728419 -0.29137346 -0.25933895 0.20504555 0.68338335 0.099115156
-0.22683452 0.08096636 -0.082596965 0.29334968 0.39169213 -0.35055858 -0.06946284 -0.16196826
0.053213302 -0.4725365 0.2518097 0.4517625 0.15116274 0.05101971 0.28647134 -0.21943927

decoder.l1.0.bias f4 [64]
00000000: c28d 5fbe 4b22 bbbe e702 5d3d d328 7dbe
00000010: 5be0 db3d 810b a23d c499 b5be fbf4 02be
00000020: 0abe 06be d4f5 afbd 5104 f9be 0657 25be
00000030: 847a 45bd 70fb 7c3d 67ee 14bd e259 e5be
00000040: 0e0b 31bd caf3 28bd 6ff0 d3be 9a38 a5bd
00000050: ee2f a93d 6add 98bd 5c40 7cbe 3f52 bd3d
00000060: 8c90 a63d f844 2bbf cb15 40be 8910 8ebc
00000070: a080 05bf 15f3 d0bd 3331 80be 814b 86be
00000080: 52b4 82bd e262 a1be 7536 82bd db1e 123d
00000090: 09b0 223d 758d d7be 1a8f 243e 168a e3be
000000a0: 521a 82be 0be0 0abd 343f 053d fef0 82be
000000b0: 2a1b 803d 7e0c d9bd e77e 2fbf 95f6 90bb
000000c0: e184 9cbd 0fa5 14be fbda 36bd 4f02 ccbc
000000d0: 88f9 63be 17aa f5bd 760d fb3d e4fd 143d
000000e0: 29b8 4dbd 7de3 33bf b6e7 03bf c41b eebd
000000f0: 84c6 acbd cf1e bfbe 4de7 10bf 491f d9be
-0.2183142 -0.365496 0.053957846 -0.24722604 0.10736152 0.079123504 -0.35468876 -0.12788765
-0.13158432 -0.0859181 -0.48636106 -0.16146478 -0.048212543 0.061763227 -0.03636017 -0.44795138
-0.043223433 -0.04124812 -0.41394374 -0.080674365 0.08261095 -0.074641064 -0.24633926 0.09244203
0.08133039 -0.6690211 -0.18758313 -0.017341869 -0.5214939 -0.10202614 -0.25037536 -0.2622948
-0.063820496 -0.31520754 -0.06358043 0.035673957 0.03971866 -0.4210011 0.16070214 -0.4444129
-0.25410706 -0.03390507 0.03253098 -0.25574487 0.06255181 -0.10598086 -0.6855301 -0.004423926
-0.07642532 -0.1451609 -0.04464243 -0.024903445 -0.22263157 -0.11995333 0.12258427 0.03637494
-0.050224457 -0.70268995 -0.5152544 -0.116263896 -0.08436301 -0.37328193 -0.56602937 -0.4240668

decoder.l1.2.weight f4 [784, 64]
00000000: 91cd 9bba aa7b 01bb 3a51 adbb 798e 1a3b
00000010: 2e65 9e3a c49a 2e3b c9d8 fbba 0900 423b
00000020: ac08 47bb c7a6 99bb e7e5 323b 315b 1dbb
00000030: 72e4 a6bb d9ce 83ba 9682 ff3b bc26 653a
00000040: 1b39 86bc bdb4 f1bc 8ce6 133b 2107 fd39
00000050: 1cc4 40ba 9063 b33d be8b a9bb bb1f 4c3b
00000060: 9c88 a73a dbeb babb a265 57bc 56da 793c
00000070: 43a3 6f3a 3f94 d03b 2e78 3bbb 4b6a 6a3a
00000080: 297d 9fbc 0401 94bb 71c3 b43b 4154 5abc
00000090: e67f 91b8 2e88 003b 7369 bfbb 0461 93bb
000000a0: f9e6 a3bb 85cb 043a 7421 353a cad0 4e3a
000000b0: 4700 10ba b789 593b 4bef e6ba 149e d1ba
000000c0: 5bf3 ec3c 679f 72bb c098 62ba d3f6 473b
000000d0: 8acb 713b 09a8 c3bb c2d0 393b f800 233b
000000e0: ef4d bfbb 24a6 c8bb e205 24bb 7f86 9f3a
000000f0: 4191 4b3a d0df c13b bb24 c8ba 870d eb39
00000100: f77c e1bb c2ef 24bb 84ed 28bb 2748 b6ba
00000110: fdfd e13b 6a8f ceba 01e0 44bb 27b6 003c
00000120: eb4f e1bb 9cda 3dbb 9a99 d43a 35f6 9d39
00000130: 11ad a03a 7631 92bb d086 2dbc 6bef 283b
00000140: a939 963c 6d94 523c c8fc 793a 7bdd 9fbb
00000150: b8d4 883b bb85 22bd 726b b23b 6074 423b
00000160: 6fa4 35ba 5e02 983b 6876 57bd 30e1 38bd
00000170: 4f60 4a3a 1191 81bc f3bf 533c 009e 8bb9
00000180: b6a5 1e3d 54b9 1c3a 249b 46ba 3b2b 29ba
00000190: 62b1 9b3b 798a 38bb f26f 5cbb d854 ccba
000001a0: ab08 02bc d48a 39bb 3ec6 20bb 6322 3c3b
000001b0: 09df 03bb 571a ebb9 f01d 673b 21da 833b
000001c0: d6b2 923b c931 003b 416b acba 3a51 fcb7
000001d0: 1830 863a 29a4 81b9 6483 6f3b e0c0 ad3b
000001e0: e486 c4bc 385e 6a3b 4b8d 713b bad8 463a
000001f0: 3422 cfbb 7947 3d3c b0d1 9337 d4c2 363b
00000200: c318 a23b cef3 fbbb 8ab7 b7b9 20bf 1ebb
00000210: 352a 033c 2467 c6bb 0932 edbb ebe2 953b
00000220: 40a8 8fbb dafa 8ebb af37 1f3c 97ec 0539
00000230: 5b8a c13b 05cb 23bb 3ce6 de3b e275 65ba
00000240: 3ac9 e5bc 3d39 91bc 08a2 fa3a bc25 cdbb
00000250: 8d77 e9b9 11c1 9a3d 4ac5 e93b c022 d93a
00000260: c06e 6db9 c3f5 5bbb 10af 40bd 705d 393d
00000270: aca4 16bb 7598 863c 6dff 92bb 0019 473b
00000280: 25f6 b3bc a7de f33a ba72 9fba dcf6 383c
00000290: 1c93 683b 1bb4 eabb 1da9 3dbb c8c9 0bbc
000002a0: 03db 8e3a 47e2 82bb 911b d6bb 18a3 b3bb
000002b0: b8d3 a83a 5170 613b 3f8c 0e3c 4644 593b
000002c0: 3e0d 493d c222 e03a bbd5 ec3a 1844 813b
000002d0: 9a01 b9ba 2427 62bb 5c68 6bbb f96b 223b
000002e0: 4c35 8d3c c0de 6f3b 056c 813b fb95 043c
000002f0: c696 baba 1a61 c23b 1276 fb3a 2aba 6d3b
00000300: fd42 c33b 1fc5 263a 422e c337 6ef7 253a
00000310: a098 0cbb 5e33 65bb 68fb 1bbb 870d 3aba
00000320: f64e ff3b bf4a 11ba 14a7 b0bb 3377 173a
00000330: f599 ccba 70cb a1bb 15e8 a6b9 54d9 9dbb
00000340: abc4 503d 4b29 1e3d 0807 663a 8219 25ba
00000350: aca9 3138 5bec c23d 00d0 87b9 f78a c63a
00000360: cdeb 9039 1583 843a 422a 72bb 9e1e 1abd
00000370: 6822 d1ba 0a45 823c 754c cbbd 3963 c2ba
00000380: a159 573d 6742 0f3c df6d 52bb e193 7c3c
00000390: c78f 1eba 34bd 57bb b6e4 ef3a baff 163b
000003a0: 95f0 213b 2878 113b 99f6 d03a 1882 803a
000003b0: e5eb 913b f8a6 393b da61 533b 14b1 a9ba
000003c0: c0c7 023d 4032 ea3a fa29 6eba ead2 4bbb
000003d0: b25f 08bc 0995 b23b 8494 b3ba 0a64 3dbb
000003e0: 7b63 a03c 5c36 5b3b 1ffa b23a 3942 a6b8
000003f0: 2ce6 3cbb bb0a 62bb fe36 1fbb 5c5d 3c3b
-0.0011886825 -0.0019757547 -0.005289224 0.0023583455 0.0012084597 0.002664254 -0.0019214387 0.0029602072
-0.003037016 -0.004689071 0.0027297677 -0.0024010653 -0.005093151 -0.0010056152 0.0077975495 0.00087414286
-0.016384652 -0.029505128 0.0022567837 0.00048261232 -0.00073534413 0.087592244 -0.0051741293 0.0031146843
0.0012781802 -0.0057043857 -0.01314679 0.015249809 0.00091414544 0.0063653286 -0.0028605568 0.00089422305
-0.01946886 -0.0045167226 0.0055164625 -0.013325752 -6.937962e-05 0.001961242 -0.005841428 -0.004497649
-0.0050018993 0.0005065727 0.0006909587 0.00078893884 -0.00054932054 0.0033193657 -0.0017618922 -0.0015992546
0.028924635 -0.003702128 -0.00086439773 0.003051211 0.0036895 -0.005970959 0.002835319 0.0024872404
-0.005838148 -0.006123321 -0.002502792 0.001217082 0.000776548 0.005916573 -0.0015269736 0.00044832772
-0.006881352 -0.002516732 -0.0025776336 -0.0013907001 0.006896733 -0.0015759293 -0.0030040743 0.0078559285
-0.006875982 -0.0028969413 0.0016220093 0.00030128812 0.0012258609 -0.0044614626 -0.010591224 0.002577747
0.018338041 0.01285277 0.00095362635 -0.0048786975 0.0041757487 -0.039678317 0.0054449374 0.0029671416
-0.00069291046 0.004638954 -0.052603155 -0.04513663 0.00077200396 -0.015816243 0.012924182 -0.00026629865
0.038732253 0.0005978544 -0.00075762183 -0.000645328 0.0047513703 -0.0028158708 -0.003363606 -0.001558925
-0.007936637 -0.0028311508 -0.0024532224 0.002870702 -0.0020121953 -0.00044842318 0.0035265647 0.0040238057
0.0044768853 0.0019560924 -0.0013154523 -3.0078565e-05 0.0010237722 -0.00024727106 0.003654682 0.0053025335
-0.023990102 0.0035761725 0.0036857899 0.00075853954 -0.006321216 0.011552685 1.7621409e-05 0.0027887123
0.0049467995 -0.007688976 -0.00035041227 -0.0024222806 0.008005668 -0.006054776 -0.0072386307 0.00457417
-0.0043840706 -0.0043634 0.009717866 0.00012772005 0.005906386 -0.0024992835 0.0068023484 -0.00087532226
-0.028050054 -0.017727489 0.0019121775 -0.006260602 -0.00044530295 0.07556356 0.0071341144 0.0016566142
-0.00022643339 -0.0033563233 -0.047041953 0.045255125 -0.0022986336 0.016430119 -0.0044860155 0.0030379891
-0.021967957 0.0018605784 -0.0012164928 0.011289325 0.0035488075 -0.0071625835 -0.002893991 -0.008531995
0.0010899011 -0.0039942595 -0.006534048 -0.005482089 0.001288048 0.0034399221 0.008700429 0.0033152266
0.049084894 0.0017100202 0.0018069068 0.003944885 -0.0014114857 -0.0034508193 -0.0035920357 0.0024783595
0.017237328 0.0036601275 0.0039496445 0.008092399 -0.0014235608 0.0059319856 0.0019184968 0.0036274293
0.0059589134 0.0006361771 2.3267352e-05 0.00063311204 -0.0021453276 -0.0034973244 -0.0023800973 -0.00070973526
0.0077913953 -0.0005542449 -0.005391011 0.0005777955 -0.0015609848 -0.0049375817 -0.00031834902 -0.0048171673
0.050968807 0.0386136 0.00087748514 -0.00062980514 4.2358108e-05 0.095177375 -0.0002590418 0.0015147616
0.00027641506 0.0010109866 -0.0036951457 -0.037626855 -0.0015955688 0.015902061 -0.099266924 -0.0014830596
0.05257571 0.008743859 -0.0032108945 0.015416116 -0.0006048646 -0.003291917 0.0018302414 0.0023040609
0.0024710048 0.0022196863 0.0015942632 0.0009804396 0.0044531696 0.002832828 0.003225437 -0.001294645
0.031928778 0.0017867759 -0.00090852345 -0.0031101056 -0.008323597 0.0054498953 -0.0013700877 -0.002889874
0.019578686 0.0033449149 0.0013654864 -7.927832e-05 -0.0028823717 -0.003449126 -0.0024294253 0.002874217

decoder.l1.2.bias f4 [784]
00000000: 67c1 663a e8b5 dfb9 8344 11b9 cd44 d038
00000010: 2f23 bf3a 84bd 213a 659d 193a 4146 803a
00000020: 8821 2f3a dec8 bd3a 719e 32ba 734b b5ba
00000030: e26b 87b9 eb78 103a 2e32 3dba 8e2a 7d3a
00000040: f4a4 f539 245b b439 3ff3 03ba 30c0 59ba
00000050: 48e4 813a 2c0f a939 fdf4 afba 81c0 3bba
00000060: 64b5 1dba 5b0b c1b9 c80a 2739 32ef dfba
00000070: 528c 8d3a ca29 beb8 bd4c 63ba 491e 99ba
00000080: 41d2 2aba efac 46ba 541b b93a 94d1 0a3b
00000090: 9e9b 8fba 2b70 353b 5522 683b ceb9 b03a
000000a0: ba6c 5f3b 4194 aa3b fc37 c8b9 6ac3 043b
000000b0: aef8 aa39 38f6 c939 5900 25ba 8635 7aba
000000c0: 42e0 0abb a8bc 0abb 177e 95ba 4cd9 85ba
000000d0: c9dc 2639 84ae bcba 4452 25ba be11 413a
000000e0: 3b85 473a 31fc 86b9 6690 b539 6c7b 5eb9
000000f0: f4e5 373a 5e5c 37bb 73ad fd3a 0723 733b
00000100: 2184 cb3b e911 20bb fcd3 07bc 8f48 a5bb
00000110: ff58 28bc a047 24bc 6bef a7bb a1ee 8c3c
00000120: 1d8c 0d3d f073 dd3c 680a b43b 2969 6abc
00000130: 051d 6abc cc62 3abc 1da3 ecbb 6a7f 14bb
00000140: ceba 5739 b068 143b cb67 3cb9 7aad 86b9
00000150: 13e9 a6b9 3895 00ba 1ef0 9ab9 5f9b 093b
00000160: a280 c7b9 ae8d 843a 3cb7 893b e124 f53b
00000170: 47a9 b63b 80da 0ebc 46eb b5bb c27f 04bc
00000180: 223d aeba eeed 6e3c c476 9a3d 286e c93d
00000190: 137e e33d 55b3 bb3d b718 5b3d 30e2 c03c
000001a0: c24d 32bb 9491 98bc 4699 5cbc 2a35 c5bb
000001b0: f893 4bbb 5f02 8bba df0b 353b 4d38 1b3a
000001c0: 908b 59b8 a458 f7b9 ab5f f73a 16ad 1c3b
000001d0: 32b2 9939 386d 173c ebbe de3b 9e97 a53c
000001e0: 349b 203d f550 7a3d 9083 ad3d b187 083e
000001f0: 7613 3b3e 5035 6d3e 0052 983e 4de8 923e
00000200: 6be2 603e 2335 fc3d ccf0 353d 1726 743c
00000210: 51ef 0e3c fb87 39bb 6cfd bcbc 5657 52bc
00000220: 09e5 a8bb 995a 3fbb 6f85 403b f645 6439
00000230: 73c7 eb39 5583 dab9 4f30 5539 ff06 4b3b
00000240: bc87 813b ec7c 313c 728a df3c 1e7b 843d
00000250: db41 e93d 6a6d 3c3e eff9 873e 660e bf3e
00000260: 20b1 e93e 5cd7 113f fca2 153f 7b61 083f
00000270: 81bc b93e 2ef0 303e 08bf 623d 7d83 d43b
00000280: 27bd 89bb 7f1f 0c3c 58af 27bc 0499 c0bc
00000290: eca2 60bb 9e90 f73b 4488 5d3c 9bf3 62ba
000002a0: 6895 b9b9 a4e7 daba a8bb f83a 6fb8 2b3c
000002b0: 8c20 ce3b b37f b93c ace6 803d 002a e03d
000002c0: 8957 393e 30cf 933e d338 cc3e ba86 013f
000002d0: d756 1d3f 0fa7 303f b2b0 353f f9bc 223f
000002e0: 5503 f83e 8fe5 8d3e b9f7 003e c98d 333d
000002f0: 9665 b63a 8f2c 5ebc 61b7 ddbc 2165 75bc
00000300: 9ee7 043a 5ec2 4b3c c782 283c 7fd2 5c3a
00000310: 8836 3a3a 08f5 b938 5665 e23a 53a5 293c
00000320: 3533 5c3c c9dd 5a3c 5d9d 5b3d 4825 df3d
00000330: 5fcd 413e 92d1 973e e0ac cd3e 472f fa3e
00000340: ab54 153f ca78 143f 7386 153f 8c04 093f
00000350: f806 f23e a427 b93e e1ee 583e cd10 d83d
00000360: fb95 d13c ede9 f5bc 98d0 57bd ef00 0fbd
00000370: ef65 0fbc 5568 1a3c b24e 9b3c 4caf 2c3b
00000380: 013b 4fba 5ad8 22bb 7b94 a3ba dbde 543c
00000390: d678 b03c bfe1 803c 4689 8d3c e1fe a83d
000003a0: b1ae 2b3e f20c 8c3e 0542 bc3e fdbf db3e
000003b0: a0a6 ec3e 35f3 d93e d24a d13e 5b1e cd3e
000003c0: 8366 d23e f40e c73e ebbc 9b3e 25bd 273e
000003d0: 2316 ac3c e025 12bd 8040 1ebd 2df8 1fbd
000003e0: 01ef 8bbc e6e2 bf3b 8518 5a3c 1734 bf3a
000003f0: 783c 7fb8 3645 523b 8392 c93a fdf9 8c3c
0.0008802623 -0.00042669405 -0.000138538 9.931028e-05 0.0014582629 0.00061699026 0.00058599404 0.0009786562
0.0006680717 0.0014479419 -0.0006813771 -0.001383169 -0.00025829586 0.0005511182 -0.0007217255 0.0009657525
0.0004685294 0.0003440018 -0.00050335 -0.0008306531 0.0009909952 0.00032245496 -0.0013424453 -0.0007162169
-0.0006016104 -0.0003682029 0.00015930377 -0.0017084836 0.0010799265 -9.06769e-05 -0.00086707977 -0.0011681999
-0.00065163156 -0.00075788697 0.0014122524 0.0021182047 -0.0010956412 0.0027685266 0.0035420854 0.0013483108
0.0034091906 0.0052056615 -0.00038188684 0.0020258077 0.00032610208 0.00038521155 -0.00062943023 -0.0009544719
-0.0021190797 -0.0021169577 -0.0011405376 -0.0010211854 0.00015913243 -0.0014395271 -0.0006306509 0.00073650095
0.00076111004 -0.0002574637 0.00034630595 -0.00021217548 0.00070151617 -0.002797864 0.001935406 0.0037099735
0.0062108194 -0.0024424738 -0.008290287 -0.00504405 -0.010275125 -0.010026842 -0.0051249764 0.01720363
0.03455745 0.027032822 0.0054944046 -0.014307299 -0.014289145 -0.011376094 -0.007221593 -0.0022658953
0.00020573588 0.0022645406 -0.00017967743 -0.00025687722 -0.0003183564 -0.0004905048 -0.0002955207 0.002099715
-0.00038052077 0.0010113025 0.0042027514 0.007481203 0.0055743787 -0.008719087 -0.0055517284 -0.0080871
-0.0013293365 0.014583094 0.07542184 0.09835464 0.11108031 0.09165064 0.053490367 0.023545355
-0.0027206992 -0.018624105 -0.013464278 -0.0060183005 -0.0031063538 -0.0010605565 0.0027625484 0.000592117
-5.186681e-05 -0.00047177554 0.0018873116 0.0023906878 0.000293152 0.009242348 0.0067976615 0.020213898
0.039210513 0.061112363 0.08472359 0.13333012 0.18269143 0.23164868 0.2975006 0.28692856
0.21961372 0.123148225 0.044419095 0.014901659 0.00872405 -0.002830981 -0.02307006 -0.012838205
-0.0051542562 -0.0029198288 0.0029376408 0.00021769837 0.00044971294 -0.0004167805 0.0002033126 0.0030979512
0.0039529484 0.010833006 0.027287696 0.06468795 0.11389514 0.18401113 0.26557872 0.37315673
0.45642948 0.5696924 0.5845182 0.53273743 0.3627663 0.17279121 0.055357963 0.006485401
-0.004203457 0.008552431 -0.010234676 -0.023510464 -0.0034276797 0.0075550815 0.013521258 -0.0008657516
-0.00035397266 -0.0016701114 0.0018976824 0.010480984 0.006290501 0.0226439 0.06293997 0.10945511
0.18099798 0.2886901 0.39887103 0.505962 0.6146063 0.6900491 0.7097274 0.635696
0.48440042 0.27714202 0.12594499 0.04383639 0.0013915773 -0.013560428 -0.027064981 -0.014977724
0.0005069914 0.0124364775 0.010285086 0.00084237003 0.00071034627 8.867128e-05 0.0017272632 0.010354358
0.013439943 0.013358542 0.05361687 0.10895783 0.18925999 0.29652077 0.40170956 0.48864195
0.5833232 0.5799681 0.5840828 0.53522563 0.47270942 0.36163056 0.21184875 0.105500795
0.025584212 -0.030018771 -0.052689165 -0.034913 -0.00875233 0.009424289 0.018958423 0.0026349602
-0.00079052156 -0.0024848194 -0.0012480164 0.012992586 0.021541994 0.015732644 0.017277371 0.08251739
0.16765858 0.27353626 0.3676912 0.42919913 0.46220875 0.42568365 0.40877396 0.40062222
0.41093835 0.38878596 0.3041757 0.16380747 0.02100665 -0.03568065 -0.03863573 -0.03905504
-0.01708174 0.005855906 0.01331151 0.0014587668 -6.0853054e-05 0.003208471 0.0015378747 0.017209047
